app/services/train_delay/saved_weights/deeptte_new_run_log_new_20250626_180336_ksize3.pth (torch, 991255 bytes, 26 tensors)

weather_emb.weight f4 [24, 8]
00000000: 099f 5fbf 571b 47bf 6bea 683f 46ab 483f
00000010: 7f1d 723f 1bc2 783f 80e8 3c3f cca9 6bbf
00000020: c42a 033f 23e2 833e ee32 19bd 394f 45be
00000030: cf1a 473e 0cd5 2fbe 41bd 433d 7898 353a
00000040: 26e0 85bf b355 943e 9b11 373f 71fc bbbd
00000050: ec69 853e 9afd eabe 62fa 853f c360 6cbf
00000060: 007a 83bd d052 5c3e ab2e 863e ffea c5be
00000070: ff03 943d b31f dbbe a053 3abe 209a 373f
00000080: 3c2a a83d 20d5 213e f578 b03e 3956 adbe
00000090: 1285 5e3e f0d1 21bc e19b eebe 0477 bc3c
000000a0: 64c8 543e a40f 113e 4c00 1ebe 570b a6be
000000b0: d292 663e 9ecd 81be c949 a8bd 4d3e 32be
000000c0: d6d1 073f 8273 c83e 41cc 46bf dc55 10bf
000000d0: 8513 ff3e 8bd2 01bf 16b5 44be 297c eb3e
000000e0: f08d 6a3d ad3f 493f eee1 513f ac9d da3f
000000f0: 172b 98bf cd03 943c a84b 103f eeee 7ebf
00000100: 490c 82be dc85 173f 6043 40bf 5b6c 273f
00000110: 8b96 afbf 7f8d cabf a2c3 523f 6534 0abf
00000120: d09c 403e d9a8 893e f6fa 823d ee07 80be
00000130: 8269 5cbe 1408 d6bd dbf6 8fbe c52b b83e
00000140: 6d22 cb3d 4ffc 443f 8924 8b3f 6df1 493f
00000150: 2af2 1dbd 5aa9 363f d93d b7bd 8c24 02bf
00000160: e99a de3d 8dcb 603e 2f6d 303e 797e 3a3c
00000170: 2269 b43d c4d7 ed3e ba0a 28bf d76a c8bd
00000180: 0663 12be 371c 1f3f 012c 543f acad ac3f
00000190: 6cdf 9fbf b42e 573e 70ea 233f 3ff9 e0bf
000001a0: 6119 343e 56de 3e3e 9205 b1be 6377 38be
000001b0: 9328 693e a6e9 2ebe cfe2 a5be 5519 11bd
000001c0: 11c2 963b cc0d 183f 9a62 8bbe 1f94 52be
000001d0: eb4c aa3e 8ba2 8b3d b816 efbd 3423 873e
000001e0: ea96 433f a80d e23e b0cb 183f cd54 3c3f
000001f0: 9345 42bf d0cd 4d3d 28b4 233d c297 c83c
00000200: 2d55 573d ddb6 3bbe 2e2d 32be dea3 d8be
00000210: 1a4f 113f ba7a 983d 7cd5 853e a179 2c3e
00000220: 36de f3be f3eb 3b3f 72b1 383e 5955 783f
00000230: c8b2 d5bf f3a9 23bf 7cf2 8f3f 8ca2 8bbf
00000240: 1111 a8bd 30b3 8c3e d6f7 08be 5376 d0be
00000250: 2891 813c 8a82 26bd f6f2 efbe 75db 593e
00000260: a733 e93d ec7b 363e 3f14 d2bd 2614 b4be
00000270: d84d bcbc 6e65 4bbe 325d 2fbe 44c3 d43e
00000280: 5ad9 ff3e c730 a43e f88c 9f3f cf35 7c3f
00000290: c5e4 31be 5808 b13e da7b 29be 6ec0 aebe
000002a0: 8650 aa3e 0387 933e 92b8 343f 8f22 4e3e
000002b0: 6f8d 09bf c03d 36bd 705a 943d 4f67 073e
000002c0: f89f c23e 4d04 db3d 01e6 ed3d 3715 4dbe
000002d0: b91c 063f ab2a a4be a002 c23d 4b59 80bd
000002e0: 18da f13e ea79 c83e 8fe9 9a3e d546 e63d
000002f0: 79c2 c1be f076 dfbc c9b4 95bc c4fd fd3e
-0.87352043 -0.7777609 0.90982693 0.7838634 0.9457626 0.9717118 0.73792267 -0.92055964
0.5123713 0.25758466 -0.037402086 -0.19268502 0.1944382 -0.17171115 0.04778791 0.00069273217
-1.045903 0.28971633 0.7151124 -0.09179009 0.26057374 -0.45896608 1.0467036 -0.92335147
-0.06419754 0.21515965 0.2620748 -0.3865585 0.07227325 -0.42797622 -0.18195963 0.7171955
0.082111806 0.15803957 0.34467283 -0.33854845 0.2173045 -0.009876713 -0.466033 0.02300597
0.20779568 0.14166123 -0.15429801 -0.32430527 0.22516945 -0.25352186 -0.082171984 -0.17406578
0.5305456 0.39150625 -0.77655417 -0.5638101 0.4981958 -0.5071189 -0.19209704 0.45993164
0.05726427 0.78612787 0.81985366 1.7079368 -1.188815 0.018068219 0.5636544 -0.9958333
-0.25399998 0.5918863 -0.75102806 0.6539971 -1.3717817 -1.5824431 0.8232976 -0.539862
0.18809819 0.26886633 0.06395523 -0.2500605 -0.21524623 -0.104507595 -0.28118023 0.35970894
0.099186756 0.7694749 1.0870525 0.7888401 -0.038561024 0.7135216 -0.089473434 -0.50837016
0.108693905 0.21952648 0.1722915 0.0113826925 0.08809115 0.4645368 -0.6564137 -0.09786003
-0.14295587 0.6215243 0.82879645 1.34905 -1.2490058 0.2101391 0.640296 -1.7576064
0.17587806 0.18639502 -0.34574562 -0.18014292 0.22769384 -0.17081317 -0.32399604 -0.03542455
0.0046007712 0.5939605 -0.27223665 -0.20564316 0.3326181 0.06818112 -0.11674255 0.26394045
0.7640215 0.44151044 0.596858 0.73566896 -0.7588741 0.050245106 0.039966732 0.024486426
0.052571464 -0.18331476 -0.17400047 -0.4231252 0.56761324 0.07445283 0.26139438 0.16843273
-0.4763047 0.73406905 0.1803644 0.9700523 -1.6695185 -0.63931197 1.1245875 -1.090898
-0.0820638 0.2748046 -0.13375792 -0.40715274 0.015816286 -0.040651836 -0.46865052 0.21275122
0.11386805 0.1782071 -0.10257768 -0.35171622 -0.022986338 -0.19862911 -0.17125395 0.41555226
0.49970514 0.32068464 1.2464895 0.98519605 -0.17372425 0.34576678 -0.16551152 -0.34131187
0.3326456 0.28813943 0.7059413 0.2013037 -0.53731436 -0.044492483 0.07243812 0.13223003
0.3801267 0.1069418 0.116161354 -0.20027624 0.5238758 -0.32063803 0.09473157 -0.06267031
0.47236705 0.39155513 0.30256316 0.11243979 -0.37843683 -0.027278394 -0.018274682 0.4960767

wind_emb.weight f4 [42, 8]
00000000: 1509 0dbf bcaa e1be ae86 09bf 16fc bc3e
00000010: 92a6 3fbf 7347 e13e e819 dfbe c180 ddbe
00000020: f047 a23e 4ac0 453f bca6 b43e f81a 043f
00000030: 3c41 3abf e6ec f53e 2342 c5bc b871 c53e
00000040: c22d 363f fe94 2e3e cb67 b23e dd2d b23e
00000050: ff4e 253f e40f 4ebf 32e2 813f 5af8 a33e
00000060: 519e f03e 3a65 4b3e 13ed a03e b17f 5e3e
00000070: e981 82bd cc9f e2be 2dd6 873c 1626 023f
00000080: 8ed3 473f 0cdb f03e e120 f43e f1fa c1be
00000090: 27cd d3bd d826 02bf 66c9 a23e 8ea2 1e3f
000000a0: 85d6 4c3e 8c76 153d 8619 3d3e b65c a53d
000000b0: 9ea5 f23e 19a5 9b3d ec28 573e 4ece 553e
000000c0: 50b9 ac3e 1716 543e de63 c53e c563 15be
000000d0: 8df0 783e 5a62 f6be 6b8e 583e f525 bc3d
000000e0: 7ef0 91bd 670f bebe a9eb dbbe eee5 06bd
000000f0: dd17 74be bb5d e8bd 1e55 18bf d0a8 0fbf
00000100: 6d10 893e 3855 153f 1064 1e3f 1e41 e8be
00000110: d134 a33e 7982 40be 0463 753e 2927 b1be
00000120: 40d6 cb3e ad1e 8b3e efff d43e 3cf7 58be
00000130: 6511 a73e 8080 0cbf fa87 043e 3aab 24bc
00000140: 2b8b 1b3d 58c3 713e af46 283e 0c4c 9e3e
00000150: 9baa 85bd 9e10 aabd 823a 75be 0266 483f
00000160: fad3 173e 45ea 3f3d 4058 4c3e fb77 26be
00000170: 83a5 03bd 40a5 96be df17 b03d d206 b4bc
00000180: fabe c5be 8fa2 d93e 3c05 e5bd c3d0 1b3e
00000190: abc5 8c3d dbdb 8cbe 690d 983d edfa 3f3e
000001a0: 7514 9c3e 18fe 8a3e 5907 30be 53aa 7e3e
000001b0: 4a1d b1bd b429 b8be c199 c43d effc c13e
000001c0: 1fdd fdbe d7df 71be e07c 39bc e440 eebe
000001d0: eb29 893e bc27 013e eb3e 1bbe aea6 b83e
000001e0: 6198 3b3e 63c4 e53e d79e 94be 806b 14be
000001f0: 0158 133e 3dc8 c5be 039c fb3e 1887 8e3e
00000200: 1caf 09be c056 7a3e cd16 773e ab4e bebd
00000210: 1c39 833d 4a1a c5bd f4ee 113e f612 bd3d
00000220: 6860 16be 9eb1 8bbd ae8d 04be a65a 6a3e
00000230: ceb4 6fbe cd62 073f ca8a 18be ad8e 95bc
00000240: 47cc 713e 4c81 d53e ea36 9c3e aae6 03be
00000250: 8554 643e 7de9 babe 68ee 873e a3e6 46bd
00000260: dfc5 b93d 60ee b63e a809 223c 704f 8fbe
00000270: 19d5 ac3d a35a aa3e 1627 1bbe 292d 3dbd
00000280: 141c 9d3e 9985 8cbe 196f 413e a7ba da3d
00000290: 615f 46be d5b3 cbbe 4912 203d 59ab 623e
000002a0: 3e7e 69be e679 583d 04d2 86be fd61 c9be
000002b0: 93cc c83e 429c e7be 1399 25bd aba1 713c
000002c0: b472 473e b3e5 a1bd 6784 ba3e 93bb 5fbe
000002d0: 4b23 a2be afa0 c5be 89e1 463e 5b1d a4be
000002e0: 6f63 0dbe 478c 1abf 8c2b 313d a239 5bbf
000002f0: 4c38 903e 759f 53bd 9f05 1abe ed8b 6a3e
00000300: df57 84be f135 83bd d876 01be 9b64 52bd
00000310: a1d9 4dbc 2294 e9be f63a 71be a216 823b
00000320: 7b2a d43d 945a d3bd 1cf0 63be 978e 75bd
00000330: 1d85 303d 63e8 35be f149 dd3d a463 7cbc
00000340: 2f44 33be d81b e1bd a610 b0be 422d 293d
00000350: 8b9b 6cbe f09c 133e eda1 c1bd 7efb 63be
00000360: 83bf f13e 2688 2b3f c42d b73e 8fb1 b63e
00000370: 2b12 713e 64c0 61be 69ea bdbd 1d35 803e
00000380: 099d d13e 6bc9 bbbe 8e6a 4f3e d68f 843e
00000390: 5f16 d23d 1392 a1be 2837 04bf f5cf 90bd
000003a0: f7ac e03d bb4b b53e 7744 f2bc f7a6 adbd
000003b0: e2a4 073f ac72 9dbe 1c47 da3d e03a 933e
000003c0: 9aad bd3e 937a 333e 9d4c 03bd f637 28be
000003d0: f2ce 183e ad0c 87be 4a7a 61bb 93e4 853e
000003e0: 0df1 973e 7840 09be 6a3d 2ebd 569f cfbc
000003f0: 7a98 7d3d 68af 8a3d f303 303e 2f7a c23d
-0.55091983 -0.44075572 -0.5372113 0.36911076 -0.7486354 0.43999824 -0.43574452 -0.43262294
0.3169551 0.77246535 0.35283458 0.5160365 -0.7275579 0.48032302 -0.024079388 0.38563323
0.7116357 0.17049024 0.34844813 0.34800616 0.64573663 -0.80493 1.0147154 0.32025415
0.46995786 0.19862834 0.31430873 0.21728398 -0.06372435 -0.4426254 0.01658162 0.50839365
0.7805718 0.4704212 0.47681335 -0.37886766 -0.10341864 -0.5084052 0.3179428 0.6196679
0.20003708 0.03649001 0.18466768 0.08074324 0.4739198 0.07599849 0.21011704 0.2087948
0.33735132 0.20711552 0.38552755 -0.1458884 0.24310513 -0.4812191 0.21148078 0.09186927
-0.07125948 -0.37121126 -0.42953232 -0.03293412 -0.23837228 -0.11346003 -0.5950488 -0.5611696
0.26770344 0.5833316 0.61871433 -0.4536218 0.31876233 -0.18799771 0.23963553 -0.3460019
0.39811897 0.2717184 0.41601512 -0.21188062 0.32630458 -0.54883575 0.12942496 -0.010050589
0.037974518 0.23609674 0.16433214 0.30917394 -0.06526681 -0.08303951 -0.239481 0.7828065
0.14826956 0.046854276 0.1995554 -0.16256706 -0.032140266 -0.2942295 0.08598303 -0.021975908
-0.38622266 0.42506835 -0.11182639 0.15216355 0.0687364 -0.27511486 0.07424433 0.18748064
0.30484357 0.27146983 -0.17190303 0.24869661 -0.086481646 -0.35969317 0.09599639 0.37888286
-0.49582765 -0.23620544 -0.011321276 -0.46533883 0.26789793 0.12612814 -0.1516072 0.36064667
0.18319847 0.44876394 -0.29027435 -0.14494133 0.1438904 -0.38629332 0.49142465 0.27837443
-0.13445705 0.24447155 0.24129792 -0.092923485 0.06407377 -0.09624155 0.1425131 0.09232132
-0.14685214 -0.06820987 -0.12944672 0.22886142 -0.23408815 0.52885133 -0.14896694 -0.01825651
0.23613082 0.41700208 0.30510646 -0.1288096 0.22297867 -0.36506262 0.26549077 -0.048559796
0.09070944 0.3572874 0.009889998 -0.27990294 0.08439083 0.33272275 -0.15151629 -0.046185646
0.30685484 -0.27445677 0.18890037 0.10680132 -0.19372322 -0.39785638 0.039079938 0.22135676
-0.22802064 0.052850626 -0.26332104 -0.39332572 0.39218578 -0.45236403 -0.040429186 0.014748017
0.1947735 -0.0790514 0.3642914 -0.21848898 -0.3166755 -0.38599154 0.19421972 -0.32053646
-0.13807462 -0.60370296 0.04325442 -0.85634816 0.2816795 -0.051665742 -0.15041207 0.2290494
-0.2584829 -0.06406773 -0.12642992 -0.051365476 -0.012564094 -0.4562083 -0.23557648 0.003969983
0.10359665 -0.10320011 -0.22259563 -0.059950437 0.043095697 -0.1776443 0.10805119 -0.015404616
-0.17506479 -0.10991639 -0.34387702 0.041302927 -0.2310621 0.14415336 -0.09454713 -0.22263905
0.47216424 0.6700462 0.35777104 0.3568234 0.23542087 -0.22046047 -0.09273226 0.25040522
0.4094012 -0.36677107 0.20255491 0.25890988 0.10258173 -0.31556758 -0.5164666 -0.07070915
0.109704904 0.3540934 -0.029573662 -0.08479112 0.52985966 -0.3075155 0.10658094 0.28755856
0.3704651 0.17527227 -0.032055486 -0.16427597 0.14922693 -0.26376858 -0.0034405165 0.2615095
0.29676095 -0.13403499 -0.042539038 -0.025344532 0.06191299 0.06771737 0.17189007 0.09495961

local_encoder.geo_conv.weather_emb.weight f4 [24, 8]
00000000: 099f 5fbf 571b 47bf 6bea 683f 46ab 483f
00000010: 7f1d 723f 1bc2 783f 80e8 3c3f cca9 6bbf
00000020: c42a 033f 23e2 833e ee32 19bd 394f 45be
00000030: cf1a 473e 0cd5 2fbe 41bd 433d 7898 353a
00000040: 26e0 85bf b355 943e 9b11 373f 71fc bbbd
00000050: ec69 853e 9afd eabe 62fa 853f c360 6cbf
00000060: 007a 83bd d052 5c3e ab2e 863e ffea c5be
00000070: ff03 943d b31f dbbe a053 3abe 209a 373f
00000080: 3c2a a83d 20d5 213e f578 b03e 3956 adbe
00000090: 1285 5e3e f0d1 21bc e19b eebe 0477 bc3c
000000a0: 64c8 543e a40f 113e 4c00 1ebe 570b a6be
000000b0: d292 663e 9ecd 81be c949 a8bd 4d3e 32be
000000c0: d6d1 073f 8273 c83e 41cc 46bf dc55 10bf
000000d0: 8513 ff3e 8bd2 01bf 16b5 44be 297c eb3e
000000e0: f08d 6a3d ad3f 493f eee1 513f ac9d da3f
000000f0: 172b 98bf cd03 943c a84b 103f eeee 7ebf
00000100: 490c 82be dc85 173f 6043 40bf 5b6c 273f
00000110: 8b96 afbf 7f8d cabf a2c3 523f 6534 0abf
00000120: d09c 403e d9a8 893e f6fa 823d ee07 80be
00000130: 8269 5cbe 1408 d6bd dbf6 8fbe c52b b83e
00000140: 6d22 cb3d 4ffc 443f 8924 8b3f 6df1 493f
00000150: 2af2 1dbd 5aa9 363f d93d b7bd 8c24 02bf
00000160: e99a de3d 8dcb 603e 2f6d 303e 797e 3a3c
00000170: 2269 b43d c4d7 ed3e ba0a 28bf d76a c8bd
00000180: 0663 12be 371c 1f3f 012c 543f acad ac3f
00000190: 6cdf 9fbf b42e 573e 70ea 233f 3ff9 e0bf
000001a0: 6119 343e 56de 3e3e 9205 b1be 6377 38be
000001b0: 9328 693e a6e9 2ebe cfe2 a5be 5519 11bd
000001c0: 11c2 963b cc0d 183f 9a62 8bbe 1f94 52be
000001d0: eb4c aa3e 8ba2 8b3d b816 efbd 3423 873e
000001e0: ea96 433f a80d e23e b0cb 183f cd54 3c3f
000001f0: 9345 42bf d0cd 4d3d 28b4 233d c297 c83c
00000200: 2d55 573d ddb6 3bbe 2e2d 32be dea3 d8be
00000210: 1a4f 113f ba7a 983d 7cd5 853e a179 2c3e
00000220: 36de f3be f3eb 3b3f 72b1 383e 5955 783f
00000230: c8b2 d5bf f3a9 23bf 7cf2 8f3f 8ca2 8bbf
00000240: 1111 a8bd 30b3 8c3e d6f7 08be 5376 d0be
00000250: 2891 813c 8a82 26bd f6f2 efbe 75db 593e
00000260: a733 e93d ec7b 363e 3f14 d2bd 2614 b4be
00000270: d84d bcbc 6e65 4bbe 325d 2fbe 44c3 d43e
00000280: 5ad9 ff3e c730 a43e f88c 9f3f cf35 7c3f
00000290: c5e4 31be 5808 b13e da7b 29be 6ec0 aebe
000002a0: 8650 aa3e 0387 933e 92b8 343f 8f22 4e3e
000002b0: 6f8d 09bf c03d 36bd 705a 943d 4f67 073e
000002c0: f89f c23e 4d04 db3d 01e6 ed3d 3715 4dbe
000002d0: b91c 063f ab2a a4be a002 c23d 4b59 80bd
000002e0: 18da f13e ea79 c83e 8fe9 9a3e d546 e63d
000002f0: 79c2 c1be f076 dfbc c9b4 95bc c4fd fd3e
-0.87352043 -0.7777609 0.90982693 0.7838634 0.9457626 0.9717118 0.73792267 -0.92055964
0.5123713 0.25758466 -0.037402086 -0.19268502 0.1944382 -0.17171115 0.04778791 0.00069273217
-1.045903 0.28971633 0.7151124 -0.09179009 0.26057374 -0.45896608 1.0467036 -0.92335147
-0.06419754 0.21515965 0.2620748 -0.3865585 0.07227325 -0.42797622 -0.18195963 0.7171955
0.082111806 0.15803957 0.34467283 -0.33854845 0.2173045 -0.009876713 -0.466033 0.02300597
0.20779568 0.14166123 -0.15429801 -0.32430527 0.22516945 -0.25352186 -0.082171984 -0.17406578
0.5305456 0.39150625 -0.77655417 -0.5638101 0.4981958 -0.5071189 -0.19209704 0.45993164
0.05726427 0.78612787 0.81985366 1.7079368 -1.188815 0.018068219 0.5636544 -0.9958333
-0.25399998 0.5918863 -0.75102806 0.6539971 -1.3717817 -1.5824431 0.8232976 -0.539862
0.18809819 0.26886633 0.06395523 -0.2500605 -0.21524623 -0.104507595 -0.28118023 0.35970894
0.099186756 0.7694749 1.0870525 0.7888401 -0.038561024 0.7135216 -0.089473434 -0.50837016
0.108693905 0.21952648 0.1722915 0.0113826925 0.08809115 0.4645368 -0.6564137 -0.09786003
-0.14295587 0.6215243 0.82879645 1.34905 -1.2490058 0.2101391 0.640296 -1.7576064
0.17587806 0.18639502 -0.34574562 -0.18014292 0.22769384 -0.17081317 -0.32399604 -0.03542455
0.0046007712 0.5939605 -0.27223665 -0.20564316 0.3326181 0.06818112 -0.11674255 0.26394045
0.7640215 0.44151044 0.596858 0.73566896 -0.7588741 0.050245106 0.039966732 0.024486426
0.052571464 -0.18331476 -0.17400047 -0.4231252 0.56761324 0.07445283 0.26139438 0.16843273
-0.4763047 0.73406905 0.1803644 0.9700523 -1.6695185 -0.63931197 1.1245875 -1.090898
-0.0820638 0.2748046 -0.13375792 -0.40715274 0.015816286 -0.040651836 -0.46865052 0.21275122
0.11386805 0.1782071 -0.10257768 -0.35171622 -0.022986338 -0.19862911 -0.17125395 0.41555226
0.49970514 0.32068464 1.2464895 0.98519605 -0.17372425 0.34576678 -0.16551152 -0.34131187
0.3326456 0.28813943 0.7059413 0.2013037 -0.53731436 -0.044492483 0.07243812 0.13223003
0.3801267 0.1069418 0.116161354 -0.20027624 0.5238758 -0.32063803 0.09473157 -0.06267031
0.47236705 0.39155513 0.30256316 0.11243979 -0.37843683 -0.027278394 -0.018274682 0.4960767

local_encoder.geo_conv.wind_emb.weight f4 [42, 8]
00000000: 1509 0dbf bcaa e1be ae86 09bf 16fc bc3e
00000010: 92a6 3fbf 7347 e13e e819 dfbe c180 ddbe
00000020: f047 a23e 4ac0 453f bca6 b43e f81a 043f
00000030: 3c41 3abf e6ec f53e 2342 c5bc b871 c53e
00000040: c22d 363f fe94 2e3e cb67 b23e dd2d b23e
00000050: ff4e 253f e40f 4ebf 32e2 813f 5af8 a33e
00000060: 519e f03e 3a65 4b3e 13ed a03e b17f 5e3e
00000070: e981 82bd cc9f e2be 2dd6 873c 1626 023f
00000080: 8ed3 473f 0cdb f03e e120 f43e f1fa c1be
00000090: 27cd d3bd d826 02bf 66c9 a23e 8ea2 1e3f
000000a0: 85d6 4c3e 8c76 153d 8619 3d3e b65c a53d
000000b0: 9ea5 f23e 19a5 9b3d ec28 573e 4ece 553e
000000c0: 50b9 ac3e 1716 543e de63 c53e c563 15be
000000d0: 8df0 783e 5a62 f6be 6b8e 583e f525 bc3d
000000e0: 7ef0 91bd 670f bebe a9eb dbbe eee5 06bd
000000f0: dd17 74be bb5d e8bd 1e55 18bf d0a8 0fbf
00000100: 6d10 893e 3855 153f 1064 1e3f 1e41 e8be
00000110: d134 a33e 7982 40be 0463 753e 2927 b1be
00000120: 40d6 cb3e ad1e 8b3e efff d43e 3cf7 58be
00000130: 6511 a73e 8080 0cbf fa87 043e 3aab 24bc
00000140: 2b8b 1b3d 58c3 713e af46 283e 0c4c 9e3e
00000150: 9baa 85bd 9e10 aabd 823a 75be 0266 483f
00000160: fad3 173e 45ea 3f3d 4058 4c3e fb77 26be
00000170: 83a5 03bd 40a5 96be df17 b03d d206 b4bc
00000180: fabe c5be 8fa2 d93e 3c05 e5bd c3d0 1b3e
00000190: abc5 8c3d dbdb 8cbe 690d 983d edfa 3f3e
000001a0: 7514 9c3e 18fe 8a3e 5907 30be 53aa 7e3e
000001b0: 4a1d b1bd b429 b8be c199 c43d effc c13e
000001c0: 1fdd fdbe d7df 71be e07c 39bc e440 eebe
000001d0: eb29 893e bc27 013e eb3e 1bbe aea6 b83e
000001e0: 6198 3b3e 63c4 e53e d79e 94be 806b 14be
000001f0: 0158 133e 3dc8 c5be 039c fb3e 1887 8e3e
00000200: 1caf 09be c056 7a3e cd16 773e ab4e bebd
00000210: 1c39 833d 4a1a c5bd f4ee 113e f612 bd3d
00000220: 6860 16be 9eb1 8bbd ae8d 04be a65a 6a3e
00000230: ceb4 6fbe cd62 073f ca8a 18be ad8e 95bc
00000240: 47cc 713e 4c81 d53e ea36 9c3e aae6 03be
00000250: 8554 643e 7de9 babe 68ee 873e a3e6 46bd
00000260: dfc5 b93d 60ee b63e a809 223c 704f 8fbe
00000270: 19d5 ac3d a35a aa3e 1627 1bbe 292d 3dbd
00000280: 141c 9d3e 9985 8cbe 196f 413e a7ba da3d
00000290: 615f 46be d5b3 cbbe 4912 203d 59ab 623e
000002a0: 3e7e 69be e679 583d 04d2 86be fd61 c9be
000002b0: 93cc c83e 429c e7be 1399 25bd aba1 713c
000002c0: b472 473e b3e5 a1bd 6784 ba3e 93bb 5fbe
000002d0: 4b23 a2be afa0 c5be 89e1 463e 5b1d a4be
000002e0: 6f63 0dbe 478c 1abf 8c2b 313d a239 5bbf
000002f0: 4c38 903e 759f 53bd 9f05 1abe ed8b 6a3e
00000300: df57 84be f135 83bd d876 01be 9b64 52bd
00000310: a1d9 4dbc 2294 e9be f63a 71be a216 823b
00000320: 7b2a d43d 945a d3bd 1cf0 63be 978e 75bd
00000330: 1d85 303d 63e8 35be f149 dd3d a463 7cbc
00000340: 2f44 33be d81b e1bd a610 b0be 422d 293d
00000350: 8b9b 6cbe f09c 133e eda1 c1bd 7efb 63be
00000360: 83bf f13e 2688 2b3f c42d b73e 8fb1 b63e
00000370: 2b12 713e 64c0 61be 69ea bdbd 1d35 803e
00000380: 099d d13e 6bc9 bbbe 8e6a 4f3e d68f 843e
00000390: 5f16 d23d 1392 a1be 2837 04bf f5cf 90bd
000003a0: f7ac e03d bb4b b53e 7744 f2bc f7a6 adbd
000003b0: e2a4 073f ac72 9dbe 1c47 da3d e03a 933e
000003c0: 9aad bd3e 937a 333e 9d4c 03bd f637 28be
000003d0: f2ce 183e ad0c 87be 4a7a 61bb 93e4 853e
000003e0: 0df1 973e 7840 09be 6a3d 2ebd 569f cfbc
000003f0: 7a98 7d3d 68af 8a3d f303 303e 2f7a c23d
-0.55091983 -0.44075572 -0.5372113 0.36911076 -0.7486354 0.43999824 -0.43574452 -0.43262294
0.3169551 0.77246535 0.35283458 0.5160365 -0.7275579 0.48032302 -0.024079388 0.38563323
0.7116357 0.17049024 0.34844813 0.34800616 0.64573663 -0.80493 1.0147154 0.32025415
0.46995786 0.19862834 0.31430873 0.21728398 -0.06372435 -0.4426254 0.01658162 0.50839365
0.7805718 0.4704212 0.47681335 -0.37886766 -0.10341864 -0.5084052 0.3179428 0.6196679
0.20003708 0.03649001 0.18466768 0.08074324 0.4739198 0.07599849 0.21011704 0.2087948
0.33735132 0.20711552 0.38552755 -0.1458884 0.24310513 -0.4812191 0.21148078 0.09186927
-0.07125948 -0.37121126 -0.42953232 -0.03293412 -0.23837228 -0.11346003 -0.5950488 -0.5611696
0.26770344 0.5833316 0.61871433 -0.4536218 0.31876233 -0.18799771 0.23963553 -0.3460019
0.39811897 0.2717184 0.41601512 -0.21188062 0.32630458 -0.54883575 0.12942496 -0.010050589
0.037974518 0.23609674 0.16433214 0.30917394 -0.06526681 -0.08303951 -0.239481 0.7828065
0.14826956 0.046854276 0.1995554 -0.16256706 -0.032140266 -0.2942295 0.08598303 -0.021975908
-0.38622266 0.42506835 -0.11182639 0.15216355 0.0687364 -0.27511486 0.07424433 0.18748064
0.30484357 0.27146983 -0.17190303 0.24869661 -0.086481646 -0.35969317 0.09599639 0.37888286
-0.49582765 -0.23620544 -0.011321276 -0.46533883 0.26789793 0.12612814 -0.1516072 0.36064667
0.18319847 0.44876394 -0.29027435 -0.14494133 0.1438904 -0.38629332 0.49142465 0.27837443
-0.13445705 0.24447155 0.24129792 -0.092923485 0.06407377 -0.09624155 0.1425131 0.09232132
-0.14685214 -0.06820987 -0.12944672 0.22886142 -0.23408815 0.52885133 -0.14896694 -0.01825651
0.23613082 0.41700208 0.30510646 -0.1288096 0.22297867 -0.36506262 0.26549077 -0.048559796
0.09070944 0.3572874 0.009889998 -0.27990294 0.08439083 0.33272275 -0.15151629 -0.046185646
0.30685484 -0.27445677 0.18890037 0.10680132 -0.19372322 -0.39785638 0.039079938 0.22135676
-0.22802064 0.052850626 -0.26332104 -0.39332572 0.39218578 -0.45236403 -0.040429186 0.014748017
0.1947735 -0.0790514 0.3642914 -0.21848898 -0.3166755 -0.38599154 0.19421972 -0.32053646
-0.13807462 -0.60370296 0.04325442 -0.85634816 0.2816795 -0.051665742 -0.15041207 0.2290494
-0.2584829 -0.06406773 -0.12642992 -0.051365476 -0.012564094 -0.4562083 -0.23557648 0.003969983
0.10359665 -0.10320011 -0.22259563 -0.059950437 0.043095697 -0.1776443 0.10805119 -0.015404616
-0.17506479 -0.10991639 -0.34387702 0.041302927 -0.2310621 0.14415336 -0.09454713 -0.22263905
0.47216424 0.6700462 0.35777104 0.3568234 0.23542087 -0.22046047 -0.09273226 0.25040522
0.4094012 -0.36677107 0.20255491 0.25890988 0.10258173 -0.31556758 -0.5164666 -0.07070915
0.109704904 0.3540934 -0.029573662 -0.08479112 0.52985966 -0.3075155 0.10658094 0.28755856
0.3704651 0.17527227 -0.032055486 -0.16427597 0.14922693 -0.26376858 -0.0034405165 0.2615095
0.29676095 -0.13403499 -0.042539038 -0.025344532 0.06191299 0.06771737 0.17189007 0.09495961

local_encoder.geo_conv.process_coords.weight f4 [16, 19]
00000000: ca5b 123f a498 39bd 5623 85bd 936a cdbd
00000010: 4572 a2be aa61 79be 5d34 df3e 6067 ddbd
00000020: 45e9 7a3e dab4 d63e 4831 923d 6eca 903d
00000030: d782 713d b2ed 1fbe 9732 e83c e43d 943d
00000040: 2ec6 39be 769f 2fbe ab64 cdbd 0581 033f
00000050: cdac 94be 11ae bf3d 2463 7ebe 659e 733c
00000060: 8ada 95be 84e4 a2bd 11e3 b8be e890 b9bd
00000070: 4d24 2bbe fd4a 1fbe 6619 9f3e 72d1 b7be
00000080: 4061 8bbe feca 2e3d 24dd cfbe 70db 58be
00000090: 131e ec3d 5708 bcbe ff69 0d3e 5b01 b8be
000000a0: e18b 123e d433 45be 2683 86be ca9d c03e
000000b0: 7f89 d6be 09e8 72be cd6c 1a3e b4ff af3d
000000c0: d3fd 06be e650 debb 343c bbbe b9af 473e
000000d0: eb02 da3e 2d22 8bbe 8359 313e cfe2 cf3e
000000e0: 4b7c 06be 42d6 013f d7df 043e d029 963e
000000f0: be6f 1e3e 9d22 cf3e 7b53 653e 0f18 943e
00000100: af45 cdbd 3226 cfbe 9251 903e c01a 8a3e
00000110: 30e0 183f d367 823e 4775 433e 54a8 c0be
00000120: 37ad 0cbe 5f02 75bd 0a8f 9f3e 57e6 a8bd
00000130: 86b2 1f3f 2b3f babe ac35 d03e 071c 373e
00000140: 70e4 afbd e6c1 9b3e 26c6 77be 31c3 fc3d
00000150: 608f bdbe 9fd2 c6be 8415 6e3d 4d9a 17bf
00000160: 4b7a a73e ff02 203e 707e d9be 22c0 e1be
00000170: b5e1 14bd fcdc 0ebf d16f 49be 585f 36be
00000180: 9179 abbe 784a f63d 1356 d43d 492e 91be
00000190: be4e b83e ac26 63bd 85c1 aa3d fb3e 1e3f
000001a0: 04db 9f3c 2a7a 653d 4523 cebe f1b9 8a3e
000001b0: 7717 16be 8b57 1dbe 5afe 97be 6c95 7abe
000001c0: 6011 f0be ec69 a4be c214 153f 6c07 8dbe
000001d0: 063e 613e 6d51 f9be 8a0b ecbd 2617 88be
000001e0: ccf5 bb3e 0ab7 aa3e 344b 1f3e aee8 e6bd
000001f0: b9fe f6be 90f4 8a3c 3834 c23d 94ab 08be
00000200: f919 24be ee84 bf3e 850c 333e efec afbd
00000210: d366 993d 5a52 c3bd 2bae e73e aa72 4b3e
00000220: 711a ac3e a68c b13e 8580 88be 6a33 783d
00000230: b36c bbbe 9055 a9bb 7c6d 693e 8ee5 0abf
00000240: 6d25 a7be 1197 8dbe afc8 afbd 4d1d 8b3e
00000250: 44c4 7dbe bd8b 9e3e 521c dfbd 45c0 0e3d
00000260: 8e6c 213f 34d7 4cbe 5be7 0b3d fa04 c7bd
00000270: fff3 99bd c1b6 653e d6e6 023d 1dbe 3bbe
00000280: 14b6 a8be 7347 3a3d ad56 613d f355 56be
00000290: d8a2 cfbe 8428 95be 9d49 1d3e 4c9c c6bc
000002a0: 08a0 853e 0706 183e ad40 a9bd c894 8f3d
000002b0: 6cb6 e43e 6f51 953e 64ca 313e 7004 a2be
000002c0: 5b04 babe ff24 6dbe 8eb1 c73c b543 863d
000002d0: a756 223e 7b29 9e36 aab6 5f3e 0daa 93be
000002e0: 4779 033e f924 273d bf64 d23c 4267 8c3e
000002f0: 4c4c 8f3e 6cb5 803e 49fa c6be 5598 26bf
00000300: f246 ddbe 1c00 e9be 4f63 09be 2f54 903e
00000310: 28be f2bd d491 03be 632a dc3d e667 4fbc
00000320: 59fe b2bd eb23 4f3e 9d18 c63e f831 ea3d
00000330: 4eaa 053d 7dff 8c3e 527d 39be 7817 23bc
00000340: 5a83 ad3e 9ee6 d73e e577 4dbe 2aa6 81be
00000350: 68c4 c0bd fdfe d73c f010 70bd 3871 4c3e
00000360: 3d5c 553e b942 263d 29e3 943d ca29 d1be
00000370: 185b a13e 36d8 5ebd c18b 463e 1db4 8fbd
00000380: 7ebd 84be 9a52 393e 76e0 bebe eba8 383d
00000390: 2222 4abf 5cc9 4a3e 0a6b 3fbd 23a8 61bd
000003a0: 2b84 9ebd 076e 44be 5a8b 053f d79a fb3d
000003b0: b308 68be d52f 8dbe e349 21be 3528 2a3d
000003c0: 4b9b 87be d337 9ebd 35de 3bbe 0f99 a2be
000003d0: 6fd5 60bd aefe b23c 543a 3fbe 0638 ed3d
000003e0: 357d f6bd ac9a debe 7351 d33d 43c2 63be
000003f0: 3861 0b3e 2609 173e 70ea b93d e5e8 77be
0.5717131 -0.045311585 -0.065008804 -0.10030093 -0.31727806 -0.24353662 0.43594638 -0.10810733
0.24503048 0.41934854 0.07138306 0.070698604 0.05896267 -0.15618017 0.028344436 0.07238367
-0.18142006 -0.17150673 -0.100289665 0.51368743 -0.29038087 0.093593724 -0.24842507 0.014869307
-0.29268295 -0.07953742 -0.36110738 -0.09060842 -0.16713066 -0.1555595 0.31074065 -0.35901982
-0.27222633 0.042674057 -0.40598404 -0.21177459 0.11529174 -0.36725113 0.13809966 -0.35938534
0.14311172 -0.19258052 -0.26271933 0.37620384 -0.41901776 -0.23721327 0.15080567 0.085936934
-0.13182764 -0.006784546 -0.3656937 0.19500627 0.4258035 -0.27174512 0.17319302 0.4060273
-0.13133352 0.50717556 0.12976013 0.29328775 0.15472314 0.40456095 0.22395127 0.28924605
-0.10023057 -0.40458828 0.28187233 0.26973534 0.5971708 0.25469837 0.19087707 -0.37628424
-0.13737951 -0.059816714 0.31163818 -0.08247059 0.6238178 -0.36376318 0.40665948 0.17881785
-0.08588493 0.3042137 -0.24196681 0.12341917 -0.3702345 -0.38832566 0.058125988 -0.5921982
0.3271049 0.15626143 -0.42479277 -0.44091898 -0.036348063 -0.55805945 -0.19671561 -0.17809808
-0.33491185 0.120259225 0.1036798 -0.28355625 0.35997576 -0.055456802 0.08337692 0.6181485
0.019513614 0.056024708 -0.40261284 0.27094987 -0.14657389 -0.15365426 -0.29686242 -0.24471062
-0.46888256 -0.32112062 0.582348 -0.27544725 0.21996316 -0.48694935 -0.115256384 -0.2658016
0.36710966 0.33342773 0.15556031 -0.11274849 -0.48241213 0.01696232 0.09482616 -0.13346702
-0.16025533 0.37406105 0.17485245 -0.08590113 0.07490315 -0.09537192 0.45250067 0.1986796
0.33613923 0.3467762 -0.26660553 0.060595907 -0.36606368 -0.0051676705 0.22795671 -0.5425652
-0.3264574 -0.27654317 -0.08583199 0.27170792 -0.247819 0.30965987 -0.108940735 0.03485133
0.63056266 -0.20003968 0.034156185 -0.09717746 -0.07517242 0.22432996 0.031958424 -0.18334241
-0.32951415 0.045478296 0.0550143 -0.20931225 -0.40553927 -0.29132473 0.15360112 -0.02424445
0.26098657 0.14846049 -0.08264289 0.070108 0.44670427 0.2916369 0.17362362 -0.3164401
-0.36331448 -0.23158644 0.024376657 0.06555883 0.15853368 4.713596e-06 0.21847025 -0.28840676
0.12839232 0.040806744 0.025682805 0.2742253 0.27987897 0.25138414 -0.38862827 -0.6507619
-0.4321819 -0.45507896 -0.1341679 0.28189227 -0.11852676 -0.12848598 0.10750272 -0.012659049
-0.08739919 0.20228545 0.38690653 0.11435312 0.03263312 0.27538672 -0.18114212 -0.009954326
0.33889276 0.42168134 -0.20065267 -0.25322086 -0.094124615 0.026366705 -0.058609903 0.19965065
0.20835967 0.040590975 0.0726989 -0.40852195 0.31514812 -0.054405414 0.1938925 -0.07016776
-0.2592582 0.18097916 -0.37280625 0.045082968 -0.7895833 0.19803375 -0.04673294 -0.05509199
-0.07740053 -0.19182597 0.5216576 0.12285393 -0.22659568 -0.27575555 -0.15750842 0.04154225
-0.26485667 -0.077254914 -0.18346484 -0.317574 -0.054891046 0.021849956 -0.18674594 0.11582951
-0.120356 -0.4347738 0.103182696 -0.22242074 0.13611305 0.14749584 0.090779185 -0.24209936

local_encoder.geo_conv.process_coords.bias f4 [16]
00000000: e1f8 6c3d e18f 063d b2bd ccbd ee0e 683e
00000010: 6d72 c73d 4c6a 06bd ad60 ddbd 848a 2e3e
00000020: 82a6 123d edda 1b3e f9cb f3bd f962 163d
00000030: 45ff 083d 9d23 99bd a4fd 9dbe 404a 5ebe
0.057854537 0.032852057 -0.09997119 0.22661945 0.09738622 -0.032816216 -0.10809455 0.17045027
0.035803325 0.15220232 -0.11904139 0.03671548 0.03344657 -0.07477496 -0.30857575 -0.21708012

local_encoder.geo_conv.conv.weight f4 [32, 16, 3]
00000000: 3944 efbd 6014 23be 3b78 94be 589d ba3d
00000010: e650 0cbe d4a8 57be 38b0 cfbd 7759 89be
00000020: 4068 4d3e f09e 71bd 6da9 1e3e 8320 64bc
00000030: 3daf bbbd cd4a ff3c 6940 86bd 238e 8d3d
00000040: 6091 523e 0596 a33d 8924 b4be fede 963c
00000050: 5315 013e 1bfe 4c3e 8c4e 13be 6f34 c2be
00000060: 5b3b cfbd 4455 eebd ad9a 4ebe f257 3c3d
00000070: 2059 abbd 744d 67be 9721 a1be 4492 a4bd
00000080: 6539 243d d7d1 9ebc ed6c 5bbe 0b66 b03d
00000090: b6f3 6d3d 1fb5 54be f37f 11bd fd7c 4ebe
000000a0: 58ec 46bd 92ec 013d 8980 093d a5bb abbb
000000b0: 4537 c13e 0588 5bbe fc0c ed3c bf9e d03e
000000c0: b555 143e 01ef 2a3e b43b 6bbe 1dc4 8dbe
000000d0: 00b2 9a3e dfdb 09be 7263 fdbc 2c69 8f3e
000000e0: d32d 6ebe 5258 a1bd dc73 453e e0e8 8dbe
000000f0: 1d2d e6bc 2cfb 843b 34b8 c6bd e878 39be
00000100: c8f9 143e 7a15 4ebc 5f00 833b b6af 4fbe
00000110: 6b29 fb3b b840 27be 76be 523e 0128 683e
00000120: bb67 383c 512d 2d3e 2b8f 00be c0fb 63be
00000130: 1b60 bdbd fc5f 743c ed2e d13d 636d 273e
00000140: a4f0 b53e ce53 423a 65a6 b63d 4a05 23be
00000150: 115f 143e defd f5bd ca02 aa3e c2b0 14bd
00000160: 0fac 633e 1ce5 373c 85a5 503e cae4 413d
00000170: 2e68 8f3e a164 2ebe af59 8abe 34fe 3c3e
00000180: 6ca7 db3d a1ad 6f3e d5b9 ccbe 4024 673e
00000190: d210 cc3c 6fc4 113d a024 97be a831 9cbe
000001a0: 28ba 3a3e 2c10 643e 368e 7abd c3f2 60be
000001b0: d889 523d 0e0f 87be 3ddd fabe fc4b 70bd
000001c0: 214b 46bd 6757 aa3e b43a 9abd b114 5c3e
000001d0: 62ca 0abe 2a4a 4a3e 762c 7ebb 02cc 553d
000001e0: fa2a cf3d 1666 af3d ad93 9cbe a1a5 903e
000001f0: dbcf 2b3e 6175 493d 5d53 2dbd 56d5 6cbd
00000200: 8190 abbd fa66 e93d 8ba8 483e 30c4 80bd
00000210: 5b76 233e 4877 8c3d 4441 d33e ee60 bbbd
00000220: f8f2 10be 7b3a b3be fcf0 e93d 22eb 283e
00000230: 97bb bb3e c1d2 06bd 8e68 48be 9650 783e
00000240: 192e 0dbd 3a7d 36be af0c afbd 9742 993c
00000250: 0bac 2fbe 51cc 96be 0d9b 88bd 0bf3 f7bd
00000260: 1f80 5bbe d576 4cbd 24ff 82bd b914 993d
00000270: 4d33 4b3e 3a14 0a3e edd2 73bc 4194 9b3d
00000280: 36a6 0fbe 8f7e b53e cbd8 54be 4de0 ef3d
00000290: c7b8 2dbe 3af9 b83e 01d2 113e 936a 5dbe
000002a0: 71d4 13be f674 103d 0922 15bd e285 4c3e
000002b0: a715 8b3e f47a 86be b8af 24be d3e3 2fbe
000002c0: bbcd dd3d df5f f5bd f594 6abd a593 9c3d
000002d0: 95c1 693e 7ae3 0cbe f028 1ebe b680 f23d
000002e0: 7a40 b23e 9b11 13bc d19a 3b3e f06a 023e
000002f0: 6eac 913e dc9c 1bbd d49b fcbd 07c4 fb3e
00000300: 6b65 57be 78c7 913e 55f3 743e ae96 1e3e
00000310: 5e26 b8bd 9efd a43e 8dbe fe3e 284c b1be
00000320: db29 78be f6a9 53be e78a 653e 0243 313e
00000330: 336c be3d 34e0 afbe 1f79 563e 080b 353e
00000340: 8533 4dbd 7cda cdbb b0e2 83bc 15c0 9d3d
00000350: 9f5c 203e a652 a3be 2515 2f3e 1b9e 18be
00000360: d5cb 42be 3c00 35be ed0d 3d3e 0641 92be
00000370: f811 9b3e e462 84be fc94 593e 4659 78be
00000380: fdb9 0f3e c4f2 e53d 7c20 8d3d 70c1 8f3c
00000390: c783 943a 42e7 3b3e 7b57 45bd 68a5 fd3d
000003a0: 5335 99be 015b 96b9 9524 a83e d6f5 af3d
000003b0: d0bb a73d f2b6 b0bd 4698 79be efd2 32be
000003c0: 2993 72bd e620 683e e6e9 97bd a737 47be
000003d0: 2c70 fb3d c77f 78bd 8adf 18be ae6a b53e
000003e0: 9cc4 69be f687 75bd 2f94 f43d 8899 84be
000003f0: 7483 8dbc a2bf 963e 4b89 0ebe 78c4 44bd
-0.11682934 -0.15925741 -0.2899798 0.09112042 -0.13702735 -0.21060497 -0.10141033 -0.2682607
0.200593 -0.058989465 0.15494318 -0.013923767 -0.091642834 0.031163597 -0.06555254 0.06911876
0.20563269 0.07987598 -0.35184124 0.018416878 0.12605791 0.20018809 -0.14385432 -0.3793063
-0.10118743 -0.11637357 -0.20176192 0.04598231 -0.083666086 -0.2258814 -0.3147094 -0.080357105
0.0400938 -0.019387169 -0.2142827 0.08613213 0.05809375 -0.20772217 -0.035522413 -0.20164867
-0.04856524 0.03171975 0.033569846 -0.005240875 0.3773748 -0.21438606 0.028936855 0.40746114
0.1448582 0.16692735 -0.22971994 -0.27688685 0.30213928 -0.1346278 -0.030931208 0.28009927
-0.23259668 -0.07878174 0.19282478 -0.27716732 -0.028097684 0.0040582623 -0.09703103 -0.18112528
0.14548409 -0.012578363 0.003997847 -0.20281872 0.0076648495 -0.16333282 0.20580468 0.2267151
0.0112552 0.16911818 -0.12554614 -0.22264004 -0.09246846 0.014915463 0.102140285 0.16350321
0.35535157 0.00074130006 0.08918456 -0.15919986 0.1448939 -0.12011312 0.33205253 -0.036301382
0.22233604 0.0112240575 0.2037564 0.04733733 0.2800917 -0.17030574 -0.27021548 0.18456346
0.107252926 0.23406078 -0.3998553 0.22572422 0.024910364 0.035587724 -0.2952013 -0.30506635
0.18235075 0.22271794 -0.06117078 -0.21967606 0.05140099 -0.26378673 -0.48996916 -0.058666214
-0.048411492 0.33269808 -0.07530728 0.21492268 -0.13553765 0.19754854 -0.0038783825 0.05219651
0.10115619 0.08564393 -0.30581418 0.28251365 0.1677851 0.049184207 -0.04231583 -0.05782064
-0.08377171 0.11396594 0.19595544 -0.0628742 0.15963118 0.068586886 0.4126073 -0.09149347
-0.14155185 -0.35005555 0.11422917 0.16495946 0.36666557 -0.032915834 -0.19571134 0.24249491
-0.03446779 -0.17821208 -0.08547341 0.01870851 -0.17155473 -0.29452756 -0.066701986 -0.12106904
-0.21435593 -0.049918015 -0.063963205 0.07474656 0.19843788 0.13484278 -0.014881832 0.075966366
-0.14028248 0.3544812 -0.20785825 0.11712704 -0.16965018 0.36127645 0.14240266 -0.21622686
-0.14436509 0.035267793 -0.03640941 0.19972947 0.27164957 -0.2626568 -0.16082656 -0.17176752
0.108302556 -0.119811766 -0.057270963 0.076453485 0.22827752 -0.1375865 -0.15445304 0.11840956
0.34814817 -0.008976365 0.18320777 0.12736106 0.28451866 -0.03799139 -0.12334409 0.49172994
-0.21034782 0.28472495 0.23920949 0.15487167 -0.08991693 0.32224745 0.49754754 -0.34628415
-0.24234717 -0.20670304 0.22416268 0.17310718 0.09297981 -0.3435074 0.20944642 0.1767999
-0.05009796 -0.006282149 -0.016099304 0.07702652 0.15660332 -0.31898993 0.1709791 -0.14904062
-0.19023068 -0.1767587 0.18462344 -0.28565234 0.30287147 -0.25856698 0.2124824 -0.24252805
0.14035793 0.112279445 0.068909615 0.017548293 0.0011330777 0.18349937 -0.04817913 0.12385064
-0.29923496 -0.00028678033 0.3284041 0.08591811 0.08190119 -0.08628644 -0.24374494 -0.17463277
-0.059222374 0.226688 -0.074176595 -0.19454823 0.122772545 -0.060668733 -0.14929023 0.35432953
-0.22828907 -0.059944116 0.11942326 -0.25898385 -0.017274596 0.2944308 -0.1391956 -0.04803893

local_encoder.geo_conv.conv.bias f4 [32]
00000000: 8bcc 163d 9976 b0bd cf26 be3d bcd1 76bc
00000010: 2b67 d4bd cae3 cf3d 9fef e0bd 1523 a7bd
00000020: 18fe 063e 7d14 6cbd 3f12 bebd 91eb e0bd
00000030: 0a96 d3bd 860f 99bd 2ffa 863d 8d7c f5bd
00000040: d15a dd3d d828 8abd 70b5 de3d 060e 783d
00000050: 7ef5 b4bd ee2e e93d 0b77 a6bd ed89 aa3d
00000060: c449 213e 0a92 693d 13dc 063d 323d bebd
00000070: 22df 253d 321b 2dbd b31b 403d 0649 fe3c
0.03681616 -0.08616371 0.09284746 -0.015064653 -0.1037124 0.10150869 -0.10983204 -0.08160988
0.13182867 -0.057636727 -0.09280824 -0.10982431 -0.10331352 -0.07473664 0.065906875 -0.11986647
0.108083375 -0.067460716 0.1087445 0.06056025 -0.088358864 0.11385904 -0.081281744 0.083270885
0.15750796 0.05702404 0.032924723 -0.09289016 0.040496 -0.042262264 0.046901416 0.03104068

local_encoder.rnn.weight_ih_l0 f4 [512, 33]
00000000: 7979 a0bd 20f5 0b3f 38fc 72be 71e2 6f3e
00000010: e829 a43d 7bdc 1f3d 3ab5 943e 89d3 fbbd
00000020: 9121 69be d269 02bf 30c9 aebe 0f83 313e
00000030: 012a 8abe 6dd6 cbbb 6d3c 0dbf 1c85 643e
00000040: c39b a0be e39a fb3d ae5c 03bf 4f98 493d
00000050: 574b 653e 42e9 d5be bc6b 8239 5d31 453e
00000060: 78ee e03d 0fa6 613e 6dd9 b33d 1020 383e
00000070: 171b 433e 5d65 a53e c93e 67be d83a 84be
00000080: 0016 32bd 5998 d6be c75f e0bc bbc9 3c3d
00000090: d288 cabc 6fe3 56be fd0d a23e 053d 16be
000000a0: 3272 8f3e c3b5 a03e 954c a03d 3c0a 823e
000000b0: 0802 74be 96b0 273d 0ea8 043e ea44 553e
000000c0: e368 8a3d 142a 943d 9354 91be 8cf3 b93d
000000d0: 1d4a 54bd 9716 c7be 6b35 303d 318a 6a3e
000000e0: 3009 3abe 1181 f93d 46a9 cc3c 4ddf d93e
000000f0: 3adf e4be 74c8 643d d027 a1be 4a79 3f3d
00000100: 12fe 41bd 724a f53c 749b 60be e6c4 34bc
00000110: 5945 ebbd 290f 8fbe 7ce6 523e 8843 913c
00000120: ff38 09bd 3788 be3d 685d 3fbe 31ad ad3e
00000130: 8048 903d 3885 49bd 64fa 9c3d 9023 653e
00000140: 31e6 da3d e9f4 4e3a 5e21 81be 24db 653e
00000150: b8a3 873d 2406 3bbd 5559 953e 0357 053e
00000160: b634 813e 14e9 a2be 644d 2c3e 4711 7bbe
00000170: f0df de3d 1e90 d93c 4d75 cfbd b016 6abd
00000180: 816b 43bd cdc5 9c3d 5520 473d f03f 6a3e
00000190: 2d07 0fbd aff1 05bd ccc2 e1bc dc8f f5bc
000001a0: e687 62bd 0314 bcbb 5a0c 063e 2e15 f6bd
000001b0: 7f2f 4dbe 6151 7b3d 72e7 40bd a4f8 833e
000001c0: 2fb7 e5bc c5d3 d9bc 0703 053d fac8 23be
000001d0: e78b 283c 105d cabd a348 983e a9f3 fa3c
000001e0: 4df4 003d b499 a83c aea5 8dba f625 adbe
000001f0: bd00 ab3d 7360 a33b 96b7 7b3d 2fd2 cb3d
00000200: f31a 1e3e 4c5c 94be 33f7 3bbe 6d6f c73d
00000210: f911 343d f6c4 f8bd 5990 a3be 7bab 843e
00000220: 7940 90bc c46d 10bd a129 aa3c 84dd 123e
00000230: 1834 e43d 9665 0c3e 41f7 afbb aa74 9fbd
00000240: 7da6 de3d 1edd 243e e223 1f3e 3414 e53c
00000250: 4af3 bfbd 4cca 323e 0be7 70bd 9f63 a53c
00000260: 8e36 013d 2ea9 04bd f543 873c 053f e7bd
00000270: 72b5 3a3d 0294 3f3e 6a8b 9abd 61c5 9e3e
00000280: 4c61 c23d cdc7 16be ca87 64bc d49b 97be
00000290: 6d34 833d 4257 40be 0e9e 9abe 3dd2 72bd
000002a0: 2ee1 dfbd 38cf 26be 0d48 533d f99d 623d
000002b0: 9f2f 323e 098b debb 23b4 bc3e fb87 6a3e
000002c0: f9b5 223e 6132 923e 79af d33d b51e 313e
000002d0: 96bd 79bd 30b5 ce3d c46a 453d dcd7 573c
000002e0: c043 a9bd 6575 063e 68bf db3d b743 48bc
000002f0: 9aa8 30be 0f52 d7be 8521 48be 432c 5dbd
00000300: 752a 243c d6e5 85be 18b6 8cbe df23 e03c
00000310: 1476 923e b9fb 7abd d599 8c3e 866c ca3e
00000320: 33f1 1a3f 1e5c 433e b2ac 143e 29a2 543e
00000330: 31d9 223f 2ce6 63be 4769 b2bc 70c1 97be
00000340: 7fa8 b83d 3ca0 fe3e 03f8 a8bd 0340 d7be
00000350: c58d 28bf 4ed4 85be 20ac febe 66f2 c8be
00000360: ae07 373d 51e6 703e 870d 4ebe 2ae5 59be
00000370: 5b5c 65be e942 553e 7a36 4d3e ac6e 9fbd
00000380: 7e04 543e 3ca5 24be c06c 52be e006 923e
00000390: b69e 313d 3545 103f c79e 29be d192 a43e
000003a0: c00b 623e 943e 933c 5f2d 083e f8f5 a0bd
000003b0: c4f8 2c3c 7517 f13c 1a48 c13d 155b ea3b
000003c0: a659 10be 1e8e 343d 918b b4bd 9377 a8bd
000003d0: 9d0c cb3d 39e2 c5bc 5bca 18be 41b1 0b3e
000003e0: e6ba 26be 3f51 7cbe d5de c23e 99f2 16ba
000003f0: 442e 4b3d e144 d33c 7af8 2c3d 2f8a 0b3d
-0.07835669 0.54670906 -0.23729026 0.23426224 0.080158055 0.039028626 0.29044515 -0.122962065
-0.22766711 -0.5094272 -0.3413787 0.17335151 -0.2698517 -0.00622063 -0.5517033 0.22316402
-0.31368837 0.12285402 -0.5131329 0.04921752 0.22392021 -0.41779524 0.000248758 0.19257112
0.10982984 0.22036003 0.08781705 0.17980981 0.19053303 0.32303897 -0.22582544 -0.25826144
-0.043478012 -0.41913107 -0.02738942 0.046090823 -0.024723444 -0.20985197 0.31651297 -0.14671715
0.28016812 0.31388673 0.07827107 0.25398433 -0.238289 0.04093989 0.12954733 0.2082707
0.06758287 0.07234588 -0.28384838 0.09079656 -0.051828492 -0.38884422 0.043019693 0.22904278
-0.18167567 0.121828206 0.02498306 0.42553177 -0.44701558 0.05585523 -0.31475687 0.04674653
-0.04736144 0.029942725 -0.219343 -0.011033272 -0.114878364 -0.27941254 0.20595735 0.017732397
-0.03350162 0.09303325 -0.18687975 0.33921197 0.07045078 -0.049199313 0.07664946 0.22376847
0.10688437 0.0007894771 -0.2522077 0.22446877 0.06623024 -0.045660153 0.29169717 0.13021474
0.25235528 -0.3181845 0.16826397 -0.2451831 0.108825564 0.026557978 -0.10129795 -0.057150543
-0.047709946 0.07654915 0.04861482 0.22875953 -0.034918953 -0.03270119 -0.027558707 -0.029975824
-0.055305384 -0.0057396903 0.13090649 -0.120157585 -0.2003765 0.061356906 -0.047095723 0.25775635
-0.02804145 -0.026590237 0.03247359 -0.15994635 0.010287262 -0.098810315 0.29742917 0.030633764
0.031482983 0.020581104 -0.0010806823 -0.33818024 0.0834975 0.004985863 0.061454378 0.09952199
0.15439968 -0.28976667 -0.18356018 0.0973805 0.043962453 -0.12146942 -0.31946066 0.2591208
-0.017608868 -0.03526093 0.020771803 0.14342314 0.111427486 0.13710627 -0.005370051 -0.07785924
0.10871599 0.16099975 0.15541032 0.027963735 -0.093725756 0.17459983 -0.05881409 0.020189105
0.031546168 -0.032387905 0.016511897 -0.11291317 0.045583196 0.18708804 -0.07546122 0.31009963
0.09491214 -0.14724655 -0.01394839 -0.29611075 0.06406484 -0.18783286 -0.3019871 -0.05928253
-0.109316215 -0.16289985 0.051582385 0.055326436 0.17400979 -0.0067914766 0.36856183 0.22903435
0.1588973 0.2855406 0.10336203 0.1729687 -0.06097182 0.100931525 0.048197523 0.0131740235
-0.082648754 0.1313072 0.10729867 -0.012223176 -0.17251816 -0.42054793 -0.19544037 -0.05399729
0.010019888 -0.26151913 -0.27482677 0.027360855 0.2860571 -0.061275218 0.27461115 0.39535922
0.6052429 0.19078109 0.14519003 0.20764984 0.6361266 -0.22255772 -0.021778716 -0.2963977
0.09016513 0.49731624 -0.082504295 -0.42041025 -0.65841323 -0.26138538 -0.49740696 -0.39247435
0.04468506 0.23525359 -0.20122348 -0.21278825 -0.22398512 0.20826305 0.20040312 -0.07784781
0.20704839 -0.16078657 -0.20549297 0.2852087 0.04336425 0.563556 -0.16564475 0.32143262
0.22074795 0.017974176 0.13298558 -0.07859415 0.010557357 0.02943013 0.094375804 0.007151971
-0.14096698 0.044080846 -0.08815683 -0.08225932 0.09914515 -0.024155723 -0.14920942 0.13641836
-0.16282234 -0.24640368 0.38060632 -0.0005758196 0.04960467 0.02578968 0.042229153 0.03406733

local_encoder.rnn.weight_hh_l0 f4 [512, 128]
00000000: 1ae3 8a3e a570 883e 8988 86bd 6e26 9fbe
00000010: 9cc5 803e d9d2 a53e 44a3 07be a528 653d
00000020: da7c b3be 3628 953d c31d 21be 6a56 6c3e
00000030: 8009 0fbe 7a9a 96be cffd fc3d 7ecc dbbe
00000040: 86b4 de3d c2b8 1fbe 6c90 6abe 9e1d 9f3e
00000050: 1d2d 31be 439b 9c3e 64f2 ccbd 5386 93bc
00000060: 2827 d4be db78 8ebc 6418 34be 359c 10be
00000070: 0786 143d 07b5 a0be 9ad1 4e3e c0bc 433e
00000080: 8369 013e 5fb9 6b3e 6ae8 ad3d bf47 793e
00000090: 7b8a 1b3d d639 f0be 066f 1f3d 4e4f ad3e
000000a0: 1085 4d3e c022 ffbc e308 b4be 1a76 203e
000000b0: 4c57 473c 34e8 523e 7139 9e3e 20b5 983d
000000c0: 913a 0dbe 75a0 febe 7c3e 133e 3d27 a9be
000000d0: 388d 693e 5174 9f3e 73a5 a8bd 118c 85be
000000e0: bb1e 003f e142 84be f256 203e cc27 343e
000000f0: 50f2 06bf 5f88 703e 672a ee3d f458 cf3e
00000100: 8e6f 04be fba3 c33e 1443 b23c 78ed a0be
00000110: 5866 de3d 5b24 88be 455a 36bf 0e2c 543e
00000120: e94f 15be f9b5 c3bc c6b1 49be ba00 0e3f
00000130: e801 d6be 0291 703e f250 b33e 7717 d93d
00000140: 8417 3abe 420c 26bb 80f6 68be c550 6abe
00000150: 755f 4e3e fcb8 71bc 8c1e 283e dc87 c0be
00000160: 45d4 5c3e c8ca 9c3d 61c1 8d3d 919a a63d
00000170: a941 0f3f 6e8f 53be b3cc 163d eda8 e5be
00000180: f774 0b3e 68eb 613e d562 bcbc ee65 38be
00000190: 6ed1 91bd 504e c3be 58c7 393e 70fd 9cbe
000001a0: 216a 4abe bc1e b23d 95e5 103d 7737 643e
000001b0: 4471 49be af9b 153e 7f38 9b3d 431a f13e
000001c0: 8c1f ae3e 2074 883d dfe3 333f 057a 44bd
000001d0: 60a6 e7be cabc f53e 176f a2be b7aa 28bd
000001e0: 3c7b 213f 5fa6 42be 0114 a33c 57f9 c3be
000001f0: 8893 62be 5edf 92bc 5956 53be 7355 f83d
00000200: 2308 a13e 1c6c 9cbe 4cc3 2a3e 21c1 84bd
00000210: 21b7 933d ce30 ad3e ea9f 2ebf ab1b b13e
00000220: e26d 1d3e bcd6 5b3e ddc6 e0bd a726 e5be
00000230: 2d57 5ebd 5c98 9c3d b0de 813c 3063 a33e
00000240: ebd8 9dbd 50f3 1ebe 7520 9f3e 068c 4b3d
00000250: c777 eabc d7d1 85bc fab1 0c3d 2694 763d
00000260: c280 743e 44ca d73d ea5f d3be 7f72 26bd
00000270: 68af 54be f2d2 583e e6bb 603d ba00 2d3d
00000280: 44d7 aabd fcf0 a73e 997c 023e 1228 0e3e
00000290: a2cf 0e3f 1781 563e c273 663d 2c76 55be
000002a0: ef8e 2b3e dc73 153e a590 20be ef41 82be
000002b0: cbf4 0cbe 96ec c8be 8782 45be 253a 05bd
000002c0: 217c 713e 8559 c53e 7c37 33bf 7bac a5bc
000002d0: fbfb 153e f4f3 e1bd d8ce 2dbf 759e 433e
000002e0: 10ae 94bd a933 dcbd 4b8a 5f3e 967f 43be
000002f0: 2a40 7abb c479 873d 6637 3e3e 909c e0bb
00000300: 98a1 06be 0fee 433d 2eca d13c 8361 fb3d
00000310: 233e a9be 9ecc 463e d7b9 033e 621b 59be
00000320: 86a7 4f3d 5921 7fbd a1c8 ccbe bd59 04be
00000330: c856 273e 74ac 44bd b5f8 47be 2587 f7bd
00000340: 8231 de3d edf3 e93e a842 0bbe 8e9f 833e
00000350: 1f21 3abd cae7 c3bd af64 593e 8a14 d4bc
00000360: 5805 b6bd 8f4c 8cbe 5b14 123d 349a 893e
00000370: 89d7 57be 7233 2bbe 4d02 073e cab7 2b3e
00000380: b26d a2be 365f 55be 7f7f d2be ca01 983c
00000390: a5ee fe3d b108 163e 1ccc a73e 3f76 f6bd
000003a0: 6f65 19be ba8f c53e 340a acbd 05f6 f7bd
000003b0: 5724 3c3e 70dc fbbe 0b81 8c3d 8ae7 a7be
000003c0: d427 d73e 43e5 9abe 7e11 163e 9fe5 9ebe
000003d0: fefb 783e d7c7 abbe 1f71 4d3e 5992 d1bc
000003e0: 48d2 5ebe a3a0 923e 2156 143b c03e 55bd
000003f0: ad95 993d 513e 82bd fcad 8dbd f485 593b
0.2712639 0.2664844 -0.06569011 -0.31084007 0.25150764 0.32387426 -0.13245875 0.055946965
-0.35056192 0.0728306 -0.1573401 0.2307984 -0.13968468 -0.2941473 0.12353098 -0.42929453
0.10874276 -0.15597823 -0.22906655 0.31077284 -0.17302366 0.30587205 -0.1000717 -0.018008387
-0.41436124 -0.017391613 -0.1758743 -0.14122088 0.03626063 -0.31388113 0.20197144 0.19114971
0.12637906 0.23019932 0.08491595 0.24343775 0.037973862 -0.46919125 0.03892424 0.33849567
0.2007029 -0.0311445 -0.3516303 0.15670052 0.012166809 0.20596391 0.309032 0.07456422
-0.13791873 -0.49731794 0.14379305 -0.3303775 0.22807777 0.3114343 -0.08234682 -0.26083425
0.5004689 -0.25832275 0.15658167 0.17593306 -0.5271349 0.23489521 0.11629181 0.40497553
-0.1293318 0.38211045 0.021760501 -0.31431174 0.10859364 -0.26590237 -0.7123149 0.2071993
-0.14581265 -0.023890482 -0.19696721 0.5546986 -0.4179833 0.23492816 0.35022694 0.10600179
-0.18173033 -0.0025336896 -0.22750282 -0.22882374 0.20153601 -0.014753576 0.16417903 -0.37603652
0.2156535 0.07655865 0.0692165 0.0813495 0.55959564 -0.20660183 0.03681631 -0.44855443
0.13618837 0.22062457 -0.022996346 -0.18007633 -0.07120024 -0.38145685 0.1814245 -0.30662107
-0.19767047 0.08697268 0.035375196 0.22286783 -0.19672114 0.1461017 0.07579135 0.4709035
0.34008443 0.06662774 0.7026958 -0.04796793 -0.45244122 0.47995597 -0.3172538 -0.04117843
0.63078666 -0.19008778 0.019907 -0.3827617 -0.22126591 -0.017928775 -0.20638408 0.12125673
0.3145152 -0.3055123 0.16676062 -0.06482149 0.072126634 0.33826298 -0.6821276 0.3459142
0.15373948 0.21468633 -0.1097543 -0.44756052 -0.054282356 0.07646248 0.015853256 0.31911612
-0.077073894 -0.15522504 0.3107945 0.049694084 -0.028621567 -0.016335411 0.03434942 0.06019988
0.23877242 0.10536626 -0.41284114 -0.040636536 -0.20770037 0.21174219 0.054866694 0.04223702
-0.0834184 0.32801044 0.12742843 0.13882473 0.5578557 0.20947681 0.05626274 -0.2084586
0.16753744 0.14594978 -0.15680178 -0.25440928 -0.13765256 -0.39243 -0.19288073 -0.032526154
0.23582508 0.3854486 -0.7000654 -0.020223847 0.14646904 -0.110328585 -0.67893744 0.19103415
-0.07259762 -0.10752041 0.21830098 -0.19091639 -0.0038185217 0.06615022 0.1857582 -0.006854601
-0.1314758 0.047834452 0.025609102 0.12274458 -0.3305522 0.19413993 0.12863861 -0.21201852
0.050696872 -0.062287662 -0.39996818 -0.12924857 0.16341698 -0.048016027 -0.19528468 -0.12086324
0.108492866 0.45693913 -0.13599646 0.25707668 -0.045441743 -0.09565695 0.21229814 -0.0258887
-0.08887738 -0.2740216 0.035663944 0.2687546 -0.21078314 -0.16718844 0.13184471 0.16769329
-0.31724316 -0.20837101 -0.41112897 0.01855554 0.124478616 0.14651753 0.3277291 -0.120342724
-0.149801 0.38586217 -0.084003836 -0.121074714 0.18373238 -0.49191618 0.068605505 -0.32793838
0.42022574 -0.30253038 0.1465511 -0.31034562 0.24314877 -0.33550903 0.20062684 -0.02558248
-0.21759903 0.2863818 0.0022634345 -0.052061796 0.074992515 -0.06359542 -0.069179505 0.0033191415
